results/spd_experiments/tms_5_2.pth (torch, 1940 bytes, 3 tensors)

linear1.weight f4 [2, 5]
0.0031357817 0.9667239 -0.9715853 0.26268944 -0.2655311 -0.00023944522 -0.26678446 0.26253974
0.9743199 -0.9655167
00000000: b081 4d3b 387b 773f d0b9 78bf 3b7f 863e
00000010: b1f3 87be 9613 7bb9 f997 88be 9c6b 863e
00000020: 076d 793f 1a2c 77bf

linear2.bias f4 [5]
-0.28040192 -0.001971696 0.00047933013 0.00016542192 -0.0020423355
00000000: d790 8fbe 9237 01bb 9a4e fb39 1c75 2d39
00000010: b4d8 05bb

hidden_layers.0.weight f4 [2, 2]
1.0 0.0 0.0 1.0
00000000: 0000 803f 0000 0000 0000 0000 0000 803f
