results/spd_experiments/spd_decomposition/model_3000.pth (torch, 19426 bytes, 20 tensors)

model.linear1.weight f4 [2, 5]
00000000: b081 4d3b 387b 773f d0b9 78bf 3b7f 863e
00000010: b1f3 87be 9613 7bb9 f997 88be 9c6b 863e
00000020: 076d 793f 1a2c 77bf
0.0031357817 0.9667239 -0.9715853 0.26268944 -0.2655311 -0.00023944522 -0.26678446 0.26253974
0.9743199 -0.9655167

model.linear2.bias f4 [5]
00000000: d790 8fbe 9237 01bb 9a4e fb39 1c75 2d39
00000010: b4d8 05bb
-0.28040192 -0.001971696 0.00047933013 0.00016542192 -0.0020423355

model.hidden_layers.0.weight f4 [2, 2]
00000000: 0000 803f 0000 0000 0000 0000 0000 803f
1.0 0.0 0.0 1.0

components.linear1.A f4 [5, 20]
00000000: 1ead 9ebc aba0 9fbd 65b6 84be 8d5c a83e
00000010: d60e 51bd fc7d 13bf ca64 17bf 3473 143a
00000020: b847 b5be 4709 a03d ebd7 13bf 9fb2 443e
00000030: 1c55 113f a14c 0ebf e432 b63d 0f7e c93e
00000040: 67f9 4d3e a6f3 e4be 7a8a 2b3e 3686 b53c
00000050: 7fab 68bf df04 0abf 3e59 243e f823 72bd
00000060: d798 01be e577 35be 4ac6 013f 3c86 043d
00000070: 94d0 ea3e 1fa9 a5be 5082 063f e56e a83e
00000080: 1c55 8d3e a2d5 e6be 44d0 833e 84d2 dbbd
00000090: de0b 5abf e454 713e 5a38 813f 3474 1fbd
000000a0: c0db 1fbc 58d8 ffbd 3655 2a3d e638 24be
000000b0: d5c5 09be 48ed a93e 9944 72bd 558a c1bb
000000c0: 1021 cebd 7796 5bbe dd95 043d bb58 bf3e
000000d0: b081 9ebd 6f2d 8ebe d82b 8ebd 1151 b4bf
000000e0: 88b5 8abc cb84 27bd d165 bc3d 19aa c9bd
000000f0: a399 7b3d 5374 8e3e 2473 fd3d 1402 8f3e
00000100: fcd5 933e 8c2e 793d 75f1 d9be a240 30be
00000110: db4b a23d d39b 10bf de35 553e 1cf5 68bd
00000120: b4e7 263e 6bf5 1b3f 6ef4 c8be 4a2c a5be
00000130: b560 df3e 919f 173f efd5 e6be 1b7a 423f
00000140: 9e02 933e e8f8 2abe b992 18bf af8d 0dbf
00000150: ac45 4f3f d6ef 0a3f c2b6 3fbe bfe6 4ebf
00000160: c27b c7bd 5e34 73bf 2e31 313f 7868 1bbf
00000170: db96 073f e28f 1ebe 0852 f1be bb70 bc3e
00000180: 9594 963e d66e 263e 24d8 bc3e bc74 dabe
-0.019369658 -0.07794317 -0.25920406 0.3288311 -0.05103954 -0.5761411 -0.59138167 0.00056629186
-0.3540628 0.078142695 -0.5775134 0.19208764 0.5677049 -0.55585676 0.08896425 0.39353988
0.2011467 -0.4471714 0.16752043 0.022158723 -0.9088668 -0.5391368 0.16049668 -0.059116334
-0.1265596 -0.17721517 0.5069319 0.03235458 0.45862257 -0.32355592 0.5254259 0.32897106
0.27603996 -0.45084864 0.25744832 -0.10733512 -0.8517436 0.2356754 1.0095322 -0.03892918
-0.009756982 -0.12492436 0.04158517 -0.1603733 -0.13454373 0.33188844 -0.05914745 -0.005906383
-0.100649 -0.21444117 0.032369483 0.37372383 -0.0773958 -0.27769038 -0.06941956 -1.408724
-0.016932264 -0.040898126 0.091991074 -0.09846897 0.061425816 0.27823123 0.12375477 0.27931273
0.28874195 0.060835406 -0.4256703 -0.17212155 0.079246245 -0.5648777 0.2082133 -0.05687438
0.16299325 0.60921353 -0.39248985 -0.32260352 0.4362847 0.59227854 -0.45085093 0.7596757
0.28712934 -0.16696513 -0.5959888 -0.55294317 0.80965686 0.5427221 -0.1872206 -0.8082084
-0.09740402 -0.9500178 0.6921567 -0.6070628 0.5296456 -0.15484574 -0.47132897 0.36804757
0.29410234 0.16253218 0.36883652 -0.42667186

components.linear1.B f4 [20, 2]
00000000: 4c33 6bbf 6afa d73e 8557 473e 43c5 0d3f
00000010: 2878 aabe 8d2a 3e3f d5f6 b8bd 5b62 b2be
00000020: e367 58be 5652 e5be e8ec 493e 270b b4bd
00000030: 9155 d0bd 2cd3 dabd d103 8f3e 732c 213f
00000040: 0124 dfbd 7d4c 1cbf e1de 2ebd dc8d 12be
00000050: 15b3 40bc bf2a 603e 5fc0 543e d362 863e
00000060: e4e0 51bd 78fb 1f3e 0fe3 ca3d f020 28be
00000070: fad0 6dbd 2c6e fbbe 99c9 433f 949d 00bd
00000080: d865 89be 5f4c 5dbd 0735 213f 15c2 3c3e
00000090: 688d dd3d 5950 663e 390a eb3e 3114 8b3f
-0.9187515 0.42183238 0.1946698 0.5537912 -0.33294797 0.7428368 -0.090314545 -0.34840664
-0.2113338 -0.4478938 0.19719279 -0.0879119 -0.101725705 -0.10684809 0.279326 0.6295845
-0.10895539 -0.6105421 -0.042693023 -0.14311928 -0.0117614465 0.21891306 0.20776509 0.26247272
-0.051239863 0.15623271 0.09906589 -0.16418815 -0.058060624 -0.49107492 0.7647949 -0.03140028
-0.26835513 -0.05402791 0.6297154 0.18433411 0.10817987 0.22491588 0.45906237 1.0865537

components.linear2.bias f4 [5]
00000000: d790 8fbe 9237 01bb 9a4e fb39 1c75 2d39
00000010: b4d8 05bb
-0.28040192 -0.001971696 0.00047933013 0.00016542192 -0.0020423355

components.hidden_layers-0.A f4 [2, 20]
00000000: 3e97 5c3f 57d4 953f 55ba 04bf e2ba 9e3f
00000010: f77a 613f 741a 54bf e325 6f3f ebc5 423f
00000020: 172f 573f 8ef7 65bf db20 423f ffbc a23a
00000030: 0d04 a5be add7 8bbf 2bbd 9e3e f5a0 383f
00000040: b968 9b3c 0062 e7bd 429b 5abf 3668 86be
00000050: 69d2 b0be aa19 613e fa18 35bf 27f6 833d
00000060: fbd9 0cbf 3944 bebe 292c 4bbe 5e2a 0ebf
00000070: f3e1 9cbe ab63 ddbb 446d 0abf b9f9 5b3f
00000080: 73e2 9dbf 5eea 773e 6aa4 423f 5d41 2dbf
00000090: 7021 5e3f 1f1c 58bf b63e 043f 8cdb 47bf
0.8616828 1.1705426 -0.5184682 1.2400782 0.88078254 -0.82852864 0.93417186 0.7608325
0.8405623 -0.89830863 0.75831383 0.0012415944 -0.32229653 -1.0925194 0.310037 0.721206
0.018970834 -0.11297989 -0.85393155 -0.26251382 -0.3453553 0.21982446 -0.70741236 0.06443434
-0.5502011 -0.37161425 -0.19841065 -0.555334 -0.30641136 -0.006756266 -0.54072976 0.8592792
-1.2334732 0.24210498 0.76032126 -0.6767786 0.8676977 -0.8441791 0.5165819 -0.78069377

components.hidden_layers-0.B f4 [20, 2]
00000000: 2220 233f a3f0 c13e d6ad f6bd 7b36 95be
00000010: 3323 273e 22be 26bf 58a4 15be 6ff8 3abc
00000020: 9044 3cbe dd56 8abc e271 d6bd 5c65 d63e
00000030: ee88 a2bd d105 933e d565 e63e cf21 cf3e
00000040: c645 223f 41c3 abbe 2cb9 ca3c 3bc7 82be
00000050: 61dc a63e 55f0 d93e b00c cf3e ec8f c53e
00000060: b8c5 c53d f5dd 253e 23b4 1c3e 4d38 453e
00000070: cf4b 933e 27de 04be bde8 473d de00 7abe
00000080: 267e d9be 5573 503f 2bef d9be 7175 3abe
00000090: 3ee0 343e ad5b d23e 8fa9 c8be e383 8d3c
0.63720906 0.37878904 -0.12044875 -0.29143128 0.16322021 -0.6513387 -0.14613473 -0.01141177
-0.1838553 -0.016887123 -0.1047094 0.41874206 -0.079362735 0.28715375 0.44999567 0.4045548
0.63387716 -0.33547404 0.0247465 -0.25542626 0.3259001 0.4256617 0.40439367 0.38586366
0.096568525 0.16197951 0.15303092 0.19259758 0.28768775 -0.1297537 0.04880594 -0.24414393
-0.42479056 0.8142598 -0.42565283 -0.18208863 0.17663667 0.41085568 -0.39191863 0.017274803

gates.linear1.mlp_in f4 [20, 16]
00000000: 8cfc 88bf d77d 093f eeb1 00bf 616f 2f3f
00000010: 282f a73e a695 1abf 683e 95be 285d 653f
00000020: 4b1a c8bf df19 1cc0 0f5e c2be 6db0 0640
00000030: f5b1 4d3f f222 e73f 72a5 17c0 0f59 773d
00000040: f184 bb3f 73be 8fbd 8e71 e53f 0357 653d
00000050: 3894 10bf 56a7 dd3f 13d6 cc3e 65b9 dc3e
00000060: 04ad 0140 56ac c73f a509 8a3f fa70 22be
00000070: 2cfe 843e c108 c9bf be44 7fbf d331 10c0
00000080: c223 bd3f 967f 883d 72c7 a83f 1293 dc3f
00000090: c3eb 1240 a68d 103f 8eb9 96be 870c 043f
000000a0: fa13 4c3f d564 a53f f312 72bf 5543 97be
000000b0: d31d 253f 1b0f 89bf 2b43 43c0 69e5 ebbf
000000c0: cd1b 03c0 e614 c3be 4933 bcbf 02a0 73bf
000000d0: b0d3 0bbd 4323 00c0 fb5a b03e 7cd1 1bc0
000000e0: 1fe1 2340 1998 693f b33d bebf a2f9 fbbf
000000f0: bade ad3f 2830 17bf b961 a6bf ca55 503f
00000100: 6f5d 00c0 422b 1fbe 2db8 0340 b608 593f
00000110: 4fab 253f fe23 8b3f 9879 2340 d5aa a0bf
00000120: 3fd9 fdbd 9147 a93f 82eb 11bf 6595 16be
00000130: f1a0 3e3f 2edd 2c3f 59b7 1940 5398 ff3d
00000140: bda7 99bf 26dc 383f 49fa 223f e819 fbbf
00000150: fae1 eabe 9922 fd3f ffd5 b13f d56e 8a3f
00000160: 35ba 20bf 3d72 dbbe 2894 863f 40ac 7abe
00000170: 105d 743f ea86 1abe 3989 453e 3d1c 2c3e
00000180: 2be1 9540 2326 8b3e 467d 63bf 10bb 183d
00000190: 7635 253f 8f70 a83f 9eed fcbf db4e b7bf
000001a0: 2e9a c43e 72e6 5e3f d022 cb3f f346 cbbf
000001b0: f5dc a53f 16f7 8bbe f640 e03f 81f8 6c3f
000001c0: a54b ddbf 9061 fd3f 6026 63bf 89d5 0740
000001d0: 16e1 88bf 4083 193f f5f1 eb3f 5c8c 1fc0
000001e0: 347b 4a40 4f61 ef3e 2fb8 3fc0 8e1f 4cbd
000001f0: ff9a ad3f 637f 793f 5f70 5d3f cf51 03c0
00000200: f51d c33f e549 883f 00f7 bdbe 2fcb d1be
00000210: 46df 2e40 fe0e 3740 9796 be3f 5b41 fc3e
00000220: d79e fb3e 578d 4abe 0e27 f0bf 4142 07c0
00000230: 6a21 9c3f 5a37 35bf 6264 63be 84d2 00be
00000240: cd41 033e 7be2 fdbf d644 41bf 6620 3540
00000250: 5651 6d3f a2e7 53be f99b 75bf 8515 6f3f
00000260: fd26 fc3e 8c86 0b3f 8cd3 063f 5f1f 2140
00000270: 5646 11bf 4bc5 963f 9e74 14c0 da73 24bf
00000280: ad2f babf ff7a 9e3f 5f89 3840 8559 b2bf
00000290: 3da9 a53f df24 6dc0 c29d 353f dd7d 083e
000002a0: 5152 de3f ad02 c63f 11b0 94bf fcbe 893f
000002b0: 3243 023f f3e6 283f 40e0 cdbf 4932 84be
000002c0: 9ba0 153f 9086 cdbf 8371 93bf 6d3c abbf
000002d0: 8efc 083f bca5 b83e 14dd 3d3e 43ce ea3f
000002e0: 3547 f53f fa5d 47bf cb0d e9bf 93d2 94be
000002f0: da0b 7c3f 3bc6 4ebd 7380 353f 1141 97bf
00000300: 3120 45bf fb0c 963f ab4d acbe 21bb 30bf
00000310: 5f21 0fc0 9cb8 42bf 0a7b 283f 7960 893f
00000320: 89f1 18be 0b1e 46be 7d98 3040 13c9 73bf
00000330: b81e 0540 55ed 4a3f a0a8 a9be 3227 153f
00000340: 7203 c4bf 0fb0 06c0 0023 0cbf 91f9 1040
00000350: 943d 91bf c590 49c0 822f 4c3e e6c9 72bf
00000360: 8503 803f f244 46c0 80aa b4bf 659e 06c0
00000370: ef74 263f 40f2 aa3e 0dae babe 3ab8 893f
00000380: 1db8 43bc 1f87 e8be 973b d4be 7dc6 153f
00000390: 5c09 693f 9389 2940 3937 aebf 13bf 0e3f
000003a0: a65f 55c0 7556 42bf 1173 b3bf 15bd bf3f
000003b0: f71f febf 23d8 01bf 8fe7 ecbe 1650 1b3e
000003c0: 83ca 893f a462 84bf b6bd 0fc0 18fc 9f3f
000003d0: a6f0 3c3e abcb 5e3f 4163 4ebf caf9 3a3d
000003e0: 8fc1 4540 1eac 4b3f f0b5 90bf 6a60 24bf
000003f0: 0983 9c3f 142a f5bf 7193 053f d68d bc3f
-1.0702071 0.5370764 -0.502715 0.68529326 0.32653165 -0.60384595 -0.29149175 0.8959527
-1.5633024 -2.439079 -0.37962386 2.1045182 0.80349666 1.805754 -2.369473 0.060387667
1.4649945 -0.07018747 1.7925279 0.055991184 -0.56476164 1.7316692 0.40007076 0.43110195
2.026185 1.5599468 1.0784193 -0.1586341 0.25975168 -1.5705796 -0.9971427 -2.253041
1.4776537 0.0666496 1.3185866 1.7232382 2.2956398 0.5646614 -0.29438442 0.51581615
0.7971798 1.2921396 -0.94560164 -0.29543558 0.64498633 -1.0707735 -3.0509746 -1.8429385
-2.0485718 -0.38101882 -1.4703151 -0.9516603 -0.034137428 -2.0021522 0.34444413 -2.434661
2.5606153 0.9124771 -1.4862579 -1.9685557 1.3583596 -0.59057856 -1.2998573 0.81380904
-2.0057027 -0.15543845 2.0581162 0.84778917 0.6471452 1.0870359 2.5542965 -1.2552134
-0.12394952 1.3224965 -0.5699998 -0.14705427 0.7446433 0.67524993 2.4018157 0.124802254
-1.2004315 0.7221092 0.63663155 -1.9617281 -0.4587553 1.9776183 1.3893431 1.0815073
-0.6278413 -0.42860594 1.0513964 -0.2447977 0.954545 -0.15090528 0.19290628 0.16807647
4.6837363 0.27177534 -0.8886303 0.03728777 0.645347 1.315935 -1.9760015 -1.432094
0.3839888 0.8707038 1.5869999 -1.5881027 1.2958056 -0.2733695 1.7519825 0.92566687
-1.728871 1.9795399 -0.8873043 2.1224082 -1.0693691 0.59965897 1.8433214 -2.4929419
3.1637697 0.46753928 -2.9956167 -0.04983478 1.3562926 0.9746 0.8649959 -2.0518682
1.5243517 1.0647551 -0.3710251 -0.4097533 2.7323775 2.86029 1.4889706 0.49268612
0.49144623 -0.1978048 -1.8761919 -2.1134188 1.2197697 -0.70787585 -0.22206262 -0.12580305
0.1281807 -1.9834741 -0.7549566 2.8301024 0.92702234 -0.2069383 -0.9594112 0.9339221
0.49248496 0.5450218 0.52666545 2.5175397 -0.5674795 1.1778959 -2.3196177 -0.64239275
-1.45458 1.2381285 2.8833845 -1.3933569 1.2942272 -3.7053754 0.70943844 0.13329263
1.7368871 1.5469567 -1.1616231 1.0761409 0.5088378 0.659774 -1.6084061 -0.25819615
0.5844819 -1.605669 -1.1519016 -1.3377815 0.5351037 0.36063945 0.18541366 1.8344196
1.9162356 -0.7787777 -1.8207334 -0.29066905 0.98455584 -0.050482016 0.7089912 -1.1816732
-0.77002245 1.1722711 -0.33653006 -0.69035536 -2.2364118 -0.7606294 0.6581274 1.0732566
-0.14935888 -0.19347398 2.7593071 -0.9522869 2.08 0.7926839 -0.33136463 0.5826293
-1.5313551 -2.1044958 -0.54740906 2.2652323 -1.1346917 -3.149461 0.19939998 -0.9483932
1.0001074 -3.097958 -1.4114532 -2.1034176 0.65022177 0.33387947 -0.36460915 1.0759346
-0.0119457515 -0.4541559 -0.41451713 0.58505994 0.91029906 2.6490219 -1.3610603 0.55760306
-3.333963 -0.7591317 -1.401949 1.4979578 -1.9853505 -0.50720423 -0.46270415 0.15167269
1.0764927 -1.0342603 -2.245954 1.2498808 0.18451175 0.8702952 -0.806202 0.045648374
3.0899389 0.79559505 -1.1305523 -0.64209616 1.2227489 -1.9153466 0.521781 1.4730785

gates.linear1.in_bias f4 [20, 16]
00000000: ec5e bb3d 9435 27bb 2104 0fbd af19 1fbe
00000010: d92d b2bc 27c1 0fbd 1fde c0bc 2764 353e
00000020: 68d5 8b3d 350f c83d acbe 303d c4b5 5cbf
00000030: c85f 50bd 31f8 2c3f 7ef2 e23e 2d88 26bc
00000040: ef08 e33c a17e 2f3d 103a 76bc 130b 1fbd
00000050: 40a1 223d 43fa 91bc 6c3e 11bd 0041 1dbd
00000060: 85b5 453c 8b79 c2bc b223 ff3c f250 0bbd
00000070: f682 8cbd bfc7 383d 8c6c 8e3d 1334 13bd
00000080: 9ea3 013e adf2 62bd a04b ef3d 51d5 283e
00000090: 68c8 9cbd e75a 2b3e 660f 80be 3bb8 f13d
000000a0: 4b39 93bd 9c08 f73d 76e2 d5bd 3c8d 653c
000000b0: 3e29 a33e 3767 aabd a968 1dbe a33b 04bd
000000c0: 6e6a 213d c8b0 293d acbe 36bd aba7 e43c
000000d0: f598 503d decb 0b3d 73f5 4a3d e563 153d
000000e0: c906 2d3d f34e 21bd 09d4 38bd b837 213d
000000f0: dfe3 2b3d 13d8 47bd 70fb 38bd 657b 3a3d
00000100: f8f5 013e 2597 ca3c 97b3 6abd 1309 3a3d
00000110: 3a84 7cbc 9336 eb3d 5815 2ebd 53ad 9fbd
00000120: 1f5c f13c b834 36bd be04 4b3c fb4a b83c
00000130: 8854 213d e11b 233d 6b68 7fbd e349 a6ba
00000140: 4e9f 93bd f940 af3d ee2b a43d 4a0d cf3d
00000150: ca97 b73d 5518 3c3d d252 743d b766 8d3d
00000160: 3910 ba3d 86ac a1bd b63d 72bd 2380 a9bd
00000170: 45ca 80bd 3977 bf3d b6c3 bf3d 4b0e b0bd
00000180: 299e d13e bfd4 eabc 1f3d c6bc 8071 e1bc
00000190: d16e 02bd 5ca6 85bc f203 a8bc 6c58 bfbc
000001a0: 5da3 24bd e23b f0bc 8adc dcbb 36df c83c
000001b0: c412 883c 1e8f da3c ddb3 823b f063 e0bc
000001c0: 6bc1 f53d 602a 043f 5bed 23bc 2b12 113f
000001d0: 1559 d33d 1d3d ebbd adad 87be 8b0f 013e
000001e0: d9c6 d4be a1a3 95bc 8e27 02bd 04a2 c5bc
000001f0: 0322 bd3e 5349 b73e 8e53 893e 989e a1bd
00000200: 2aba 9f3c 3914 9d3c 2a7c 7ebc 34ae 833c
00000210: b04d a1bc 87c4 a0bc a1fd 9f3c 6cb7 963c
00000220: d49b 963c d1d2 883c bc1e 463b deaa 19bc
00000230: 9df9 9dbc fd6d 5abc 622d 873c 3a31 8b3c
00000240: d941 87bd 7fc4 0c3f 861a 12bd 4401 b9bc
00000250: a9fe 1fbc 7537 bcbc 50b6 99bd 3c55 1d3c
00000260: 95b3 003d 64bf 91b8 12c7 6cbd 5672 31bd
00000270: 9144 cabc 8bed ac3c 6b40 eb3d d68b ed3d
00000280: 625d 9a3d 74fe a43e b8aa 25be 4aa0 40bd
00000290: 4bcb 963e 6d2d 353d b057 1abe aabb a83e
000002a0: b3eb 30be c029 b3bd 3438 91bd 4ef1 d43c
000002b0: 2537 983e 3da0 35be b2d9 37bd 8b89 45be
000002c0: b9d9 1fbd a2db f73b 2fe3 2ebc 95b4 27bc
000002d0: 4beb 08bd fed1 c13c b700 afbc 8d97 83bd
000002e0: c8ab 73bd a215 263c 3897 fa3b 85da 8fbc
000002f0: 0b81 2fbe cf10 8a3c c5eb 223d 7b64 30bc
00000300: a665 34be 8ea0 ecbd 3b4a f3bd b835 15be
00000310: 269b 733d 0ed5 c7bd 1802 453e eb84 e03d
00000320: 0917 f23d 0d1a d53d 665c 8f3e 575a be3d
00000330: 597e f8bd 34bd 3a3e 1972 9d3d 7f8f d9bd
00000340: e762 f93d 940f 203e ce03 b3bd 5678 853d
00000350: 2ed9 d43d be81 293e b4d0 a83d f565 c83d
00000360: db5e 993d 3c6c adbd 34fd ef3d 13b7 323e
00000370: 8087 a73d 1e4f 83bd 6ce2 96be f5bc 6fbd
00000380: bcb8 a13d 14c4 323d b5a6 873d 4d2e aa3d
00000390: e8e2 473e 1b2d 08bd 6326 623d db96 c4bb
000003a0: 7638 37bd 90e8 a4bd cf62 663d efc5 8a3d
000003b0: f720 793d a16b 93bd dc60 c9bd 2eec b33d
000003c0: cdcf 6c3e b61e 1c3d 7464 793d 4fd8 ac3e
000003d0: 83b9 fd3d 838f 023e 5b57 233b aed7 3a3d
000003e0: 6ccc 20be 9f51 303f e429 323d be3d 42bd
000003f0: a847 0fbe 7851 57bd 163b 8b3e 5bff 963e
0.09148964 -0.0025514113 -0.034916047 -0.15537141 -0.021750377 -0.035096314 -0.023543416 0.17713986
0.068278134 0.097685255 0.04315059 -0.8621485 -0.050872594 0.6756621 0.44325632 -0.010164303
0.02771422 0.042845372 -0.015028492 -0.03882892 0.03970456 -0.01781953 -0.03545992 -0.038392067
0.012067203 -0.023739597 0.03114495 -0.034012742 -0.06860916 0.045112368 0.069542974 -0.035938334
0.12660071 -0.055407215 0.11684346 0.16487624 -0.07655412 0.16733895 -0.25011748 0.11802717
-0.07188662 0.12062189 -0.104435846 0.014010724 0.31867403 -0.08320468 -0.15371956 -0.032283437
0.03940814 0.041428357 -0.044615433 0.027911982 0.05092712 0.03412997 0.049550485 0.03647222
0.0422428 -0.039381932 -0.045124087 0.03935978 0.04196536 -0.04879005 -0.045161664 0.045527834
0.12691486 0.024730274 -0.057300176 0.04541881 -0.015412385 0.114850186 -0.042500824 -0.07796731
0.029462872 -0.04448387 0.012391267 0.022496691 0.039387256 0.03982151 -0.06235544 -0.0012686815
-0.07208119 0.085573144 0.080161914 0.101099566 0.08964498 0.045921642 0.059649296 0.06904357
0.090851255 -0.07894234 -0.059140883 -0.08276393 -0.0628858 0.09348912 0.09363501 -0.08596476
0.4094098 -0.028665898 -0.024199067 -0.027519941 -0.031843964 -0.016314678 -0.020509694 -0.023357593
-0.040194858 -0.02932543 -0.0067401575 0.024520498 0.01661051 0.026679572 0.0039887265 -0.027391404
0.11999782 0.5162716 -0.01000532 0.5666835 0.103197254 -0.11486266 -0.26499692 0.12603585
-0.4155796 -0.0182665 -0.031776004 -0.024125107 0.3694001 0.3579813 0.2682156 -0.078915775
0.01949795 0.019174682 -0.015532533 0.016074277 -0.019690365 -0.019624962 0.01953012 0.01839801
0.018384852 0.016702088 0.0030230721 -0.009379117 -0.019284064 -0.013331887 0.016501132 0.016991246
-0.06604356 0.5498733 -0.035669826 -0.022583611 -0.009765306 -0.022975663 -0.075054765 0.009602841
0.031421263 -6.949788e-05 -0.057807036 -0.04332193 -0.024690898 0.021109363 0.11486896 0.11598937
0.075373426 0.32225382 -0.16178405 -0.047027864 0.29451975 0.044232775 -0.15072513 0.32955676
-0.17277412 -0.087481976 -0.07090798 0.02599397 0.29729572 -0.17736907 -0.044885345 -0.1929075
-0.039025996 0.007564024 -0.010674282 -0.010235925 -0.033427518 0.023659702 -0.021362646 -0.064253904
-0.059489995 0.010136994 0.007647421 -0.017560253 -0.1713907 0.016853718 0.03977563 -0.010766144
-0.17616901 -0.11554061 -0.11879393 -0.14571273 0.059474133 -0.09757434 0.1923908 0.10962852
0.118208 0.104053594 0.28000182 0.09294575 -0.12133474 0.18236238 0.07687778 -0.10623073
0.12177067 0.15630943 -0.0874096 0.06517093 0.10392986 0.16553399 0.08242932 0.09785072
0.07488795 -0.0846791 0.117182165 0.1745265 0.081801414 -0.06411575 -0.2946962 -0.058529813
0.078965634 0.043644026 0.06623594 0.083096124 0.19520152 -0.03324614 0.05521239 -0.0059994287
-0.04473158 -0.0805217 0.056246575 0.06776034 0.060822453 -0.07198263 -0.098329276 0.08785282
0.23126145 0.038115226 0.060886815 0.3375878 0.12388899 0.12750058 0.0024923894 0.045615844
-0.15702981 0.68874544 0.04349698 -0.047422163 -0.13992178 -0.05256793 0.27193516 0.29491696

gates.linear1.mlp_out f4 [20, 16]
00000000: e94e 833e 80a9 36be 9c85 fbbe 7adc f0bc
00000010: ed6f 76be f259 9bbe ef73 76be 5528 92be
00000020: 72c0 783f 6bb0 883e 97d4 5f3f 2f50 593d
00000030: 1967 8fbe 91b4 eabe 3fce ef3d eeae 91be
00000040: 1d46 9fbd 8c1c 17be f450 5b3e 1f0a 453e
00000050: ba10 4cbe d90d 343e 07c6 9a3e a502 d73d
00000060: 04cb 20bf 447b c43e 83bf babd 248f 0b3e
00000070: 33f1 403d 9b82 aebd 49d9 3cbd 0336 583e
00000080: 5b8c 2cbe 0d6f 673e 1516 85be 75f5 a9bd
00000090: 2856 ae3e 24de 77be f418 203f d840 cdbe
000000a0: 469b 813e 5794 6dbe d9fa 9f3e ada5 37bd
000000b0: 1404 4dbe f44b cb3e ed5a 663b 8311 2b3f
000000c0: fdac 72be c730 b7bd 8a00 8b3e 96ff 45bd
000000d0: 6e40 cabe bf77 a1bd 6b83 80be 049a 21be
000000e0: 5b48 eebd 1723 633e ece6 223e 50f8 44be
000000f0: 470f 25be 1f4c 9d3e 4a4f d63e 9a7e 55be
00000100: 029d d4be ead2 febe f426 75be bc5c 943e
00000110: 6630 03bd 0314 ce3d 6a7d 4fbc c199 bd3e
00000120: e0ec f5bd 40a0 53be a7c7 54bf 9cff dfbe
00000130: c211 eb3e 97fb a13e 1b3d a5be f782 c13e
00000140: 2ba1 873e c782 11bd 6ead e3be 148f 5ebd
00000150: b056 ebbe 7037 20bf c335 9abe bb11 63be
00000160: 3ef8 4fbd 7410 343e ca55 0d3e 5ca7 7f3d
00000170: 327c 593e 4e54 19bf cf19 1bbe 0fc6 663e
00000180: 2ef6 31be b4e3 a23e f3ba 293e ddbc b43e
00000190: e7f6 1c3e 2967 cc3d 7fca b33b 42b8 4d3e
000001a0: de6d c73c a794 bd3d 5b69 6b3e a5f5 b1bd
000001b0: 2d79 f8be f6d1 3fbf 0419 1ebe 2c80 3f3e
000001c0: cc00 033f fd1b 73bf 154a c03d a0b6 2cbf
000001d0: 4d78 073f dddf a63e 6ae1 093e be3d d83e
000001e0: 0f4a 953e cc6b 3fbd 2c2e 453d 462c b9be
000001f0: 5c0d e3be 5429 a4be cfd2 a6be e35a 21be
00000200: 048a e5be 7fcb 5cbe 82fb 0a3e a588 88bd
00000210: ce48 6b3e 03fe c53d 86fb cabd dcf0 b9be
00000220: 8699 84be b1ca 24be 656b 94bc 0d59 2dbe
00000230: a0fe a43d dd30 243e 4b5b c7be 31d4 07be
00000240: 2ea7 343f 9a97 3bbe 057d 06bd e7bf c63e
00000250: 1b2f 0f3f 4e2e 3dbd 35ec 833e b7a7 103e
00000260: 8726 3abe c2c5 ed3d 6399 143e 9ebc fbbc
00000270: 00ed 42bd f96c ac3c 4948 83be c058 89be
00000280: e4d9 babd 57bd 89be 78ee c23e 841d 0a3e
00000290: 54b9 95be ad9a a9bc c563 9fba 051f d1be
000002a0: 8621 af3e b980 6abd 8f75 2c3e 622e bcbd
000002b0: c25a 15bf f25a a83d c11e 8a3e e1fb 0d3f
000002c0: 697b 8e3d bec3 c2bd eb60 d93e 0916 d33e
000002d0: 7f39 a63e 1b51 27be 9f81 883e bdef bb3d
000002e0: a53d 983d 2b6b 9cbd 0be8 04be 0afa 863c
000002f0: d531 fe3b 995b 92bd 283b 85be 29ae 8f3e
00000300: 1d0c 453e 6e82 923e 2eba 153f 172c 693e
00000310: 4bf1 e2be 002f 233f 8906 c2be d205 26be
00000320: 7860 93be f162 c7bd 0009 52be 80a7 4dbe
00000330: 5e91 0c3f ceff 4cbe 2c6e f93b 6a09 273e
00000340: 423e 76be b01e 67bd 397d 053e 5ea5 a7be
00000350: ed65 1ebe a6b6 6ebe f3d7 d6be cd2e cdbe
00000360: cf4d 75be 1409 163e beaa 9fbd 0f3b a8bc
00000370: a902 42be d5da b13e 007c 073e 3287 823e
00000380: f27a 9cbe 3ed4 1ebd ec07 5fbe 0f80 03be
00000390: 424c e6bc 1d0e 6b3e 438a abbd aad9 8d3b
000003a0: 4a9c 7b3e 7029 1b3e f023 bcbd 7b46 92bd
000003b0: 862a 43be c086 d93e be4e c23d 136d 6bbe
000003c0: de9f 53bf 7864 0e3f 733c a23e f25d c1be
000003d0: e00d 02bf 36e9 febd cc51 df3e ac29 92be
000003e0: 23ac 993e 5b39 12bf 8b3b e63e 7643 f1bd
000003f0: 6c14 843e d11b f73d fa7f 07bf df3d d6be
0.2564614 -0.17838097 -0.49125373 -0.029402006 -0.24066134 -0.3034206 -0.24067663 -0.28546396
0.9716865 0.26697096 0.8743376 0.053054985 -0.28008345 -0.45840886 0.1170926 -0.28453773
-0.07777045 -0.14756984 0.214176 0.19242142 -0.19928256 0.17583407 0.30229208 0.10498551
-0.6280978 0.38375294 -0.09118559 0.13628823 0.047105026 -0.08521005 -0.046105657 0.21114354
-0.16850416 0.22600956 -0.2599341 -0.0829877 0.34050107 -0.24205834 0.62538075 -0.40088534
0.25313777 -0.23201118 0.3124607 -0.044835735 -0.20021087 0.39706385 0.003514941 0.66823596
-0.23698802 -0.089448504 0.2714885 -0.04833945 -0.3950228 -0.07884168 -0.25100264 -0.15781409
-0.116348945 0.22181354 0.15908402 -0.19235349 -0.16119109 0.30722138 0.41857368 -0.20849076
-0.41526037 -0.4977029 -0.2394064 0.28977 -0.03202858 0.10062411 -0.012664178 0.37031367
-0.12008071 -0.206666 -0.83117145 -0.43749702 0.45911986 0.3163726 -0.32273182 0.3779523
0.2649015 -0.03552511 -0.44468254 -0.05433567 -0.45964575 -0.6258459 -0.30119142 -0.22174732
-0.05077385 0.17584401 0.13802257 0.062415466 0.21238783 -0.59894264 -0.15146564 0.22536491
-0.17379066 0.3181435 0.16575222 0.3530034 0.15328561 0.09980614 0.005486786 0.2008982
0.024344381 0.09256869 0.22989409 -0.08689431 -0.4852995 -0.7492975 -0.1543923 0.18701237
0.5117309 -0.9496458 0.0938913 -0.67466164 0.5291794 0.3259267 0.13464895 0.42234606
0.29158065 -0.046733662 0.048139736 -0.3616659 -0.4434613 -0.3206278 -0.3258271 -0.15757327
-0.4483186 -0.21562003 0.13572505 -0.06666688 0.22976992 0.096675895 -0.099112555 -0.36316574
-0.2589838 -0.16092946 -0.018117616 -0.16928501 0.08056378 0.16034265 -0.38936839 -0.13264538
0.70567596 -0.1831955 -0.03283407 0.38818285 0.5593125 -0.046186738 0.2576615 0.14126478
-0.1817876 0.11609985 0.14511637 -0.030729588 -0.047589302 0.021048056 -0.25641087 -0.26825523
-0.091235906 -0.26902267 0.38072562 0.13487822 -0.29242957 -0.020703638 -0.0012160471 -0.4084398
0.34205264 -0.057251666 0.1684172 -0.09188534 -0.5834161 0.082204714 0.26976588 0.5546246
0.06957132 -0.09509991 0.42456755 0.4122775 0.3246574 -0.16339533 0.26661393 0.09176586
0.07433633 -0.07637628 -0.12979142 0.01647665 0.0077574053 -0.07146377 -0.26021695 0.2806256
0.19242902 0.28615135 0.5848721 0.22770725 -0.44324717 0.6374359 -0.3789561 -0.16213158
-0.28784537 -0.097356685 -0.20511246 -0.20083427 0.5490931 -0.20019457 0.0076120105 0.16312185
-0.24047187 -0.05642575 0.1303605 -0.32743353 -0.15468569 -0.23311862 -0.4196163 -0.4007477
-0.23955463 0.146519 -0.07796238 -0.020535974 -0.18946327 0.34737268 0.13230896 0.2549377
-0.3056255 -0.03877663 -0.21780366 -0.12841819 -0.028112534 0.22954603 -0.08375981 0.004328926
0.24571338 0.15152526 -0.09186542 -0.07142349 -0.1905919 0.4248562 0.09487675 -0.22990827
-0.8266581 0.55622053 0.31686744 -0.37766987 -0.5080242 -0.12446825 0.43617094 -0.28547418
0.30014142 -0.5711877 0.44967303 -0.11780445 0.2579683 0.120658524 -0.5292965 -0.4184408

gates.linear1.out_bias f4 [20]
00000000: e51e 4c3c 450b 14bd 4d8b 91bd 7021 46bd
00000010: f865 7cbc 3d93 afbd 1f48 dfbc e9b4 143c
00000020: 6191 8dbc f1e8 71bd 2baa 53be 34c4 8fbc
00000030: 56f2 f8bd 20df 94bd f182 8dbd 6709 84bd
00000040: 710e 2fbc 7f5d 48bd aea5 1dbe 4f8f bd3b
0.012458538 -0.03614356 -0.07106648 -0.048371732 -0.015405171 -0.08573005 -0.02725607 0.0090763355
-0.017281236 -0.05906004 -0.20670383 -0.017549612 -0.12155597 -0.0726912 -0.06909741 -0.06447106
-0.010684595 -0.04891729 -0.15395233 0.005784906

gates.linear2.mlp_in f4 [20, 16]
00000000: 43be 523f f75e 51bf fa8b 9f3f bb57 b03f
00000010: 85e7 e6bf f1a6 01c0 3ace 5abf d4b4 0a40
00000020: 3b96 d73f 986f c3bf 5abf 993f d75e 693f
00000030: e58b ddbf 06fc 85bf 5797 6c40 ee25 923f
00000040: 0108 8abf e93f 0140 a345 333e 4d27 5cbe
00000050: 370b e63f f5d8 38bf fec8 513e d28f 2a3f
00000060: 442d 1c3f 4231 1e3f 20b5 b73e ffca f0bc
00000070: 1473 b13e 1168 9f3e 0b4c f43e 2563 843f
00000080: f5f1 03c0 aa0b bcbf 494c 0f3f 25ec 1d40
00000090: ae0a 0dc0 84b9 babe 1d07 8d3e 3e8f f1bc
000000a0: 4b49 193f b2dc fabe 2e46 59bf 6ded eb3d
000000b0: 896c c23e 4ae5 75c0 670d aa3f dfbe 813f
000000c0: 9f7f 0140 6659 91be 78c8 c43f 3aa4 1d3f
000000d0: 74fa c5be 786e d33e 62ff 09c0 5976 8ebd
000000e0: 7ecd 8d3f 1f32 3e3e 0363 97bf 5f94 983e
000000f0: 511b 1340 d4aa 4dbe 51ff a73f 22c6 a0be
00000100: 1156 f03d 6875 683d da18 f4be a4a5 4540
00000110: 8126 0740 3aaa 583f 4659 85bf 95cf d3bf
00000120: a24f 2a3d 6d7e a83f 27e6 2b3f 24e8 fcbf
00000130: 73be a23f 1174 873f 27c2 0740 598b ddbe
00000140: 998a 5e3f 76b3 b83f cf68 91bf d3aa 323f
00000150: 9157 af3f eb18 893f fc7b 40c0 b4a4 b23d
00000160: e897 e63f e1f0 6a3f 7305 3a3f 4101 13bf
00000170: 9af9 12bf d42a fe3e e14c e13e fb95 7dbe
00000180: 0117 05bf 0450 3b40 e5d9 cb3f b5a2 4e3f
00000190: 21e3 a53f de72 aabe 8652 803f a875 ae3f
000001a0: 3efc 0cc0 f22e 78bf 9c7d b3be 6109 763e
000001b0: a596 1540 945e 9b3f 583c 0a40 8f9a 2cbe
000001c0: 0702 b3be d84f cebc f640 d53e dba3 3abf
000001d0: d569 ba3f 1cc0 e5be c35f 9bbe ff89 1cbe
000001e0: 683d c1bf 2213 5fbf 31ae 9a3f d2a7 31bf
000001f0: 80b3 d0bf 9cd3 5bbe 350a 613e b738 48bd
00000200: 8e90 f3be 9420 cfbf 3478 20bb c62e ed3f
00000210: 7d1f 48bf cc0a 28bf 9fbb 9b3f 489f 7d40
00000220: e0ea b93f 41cb ea3f 541b 4ebf 88ff bf3f
00000230: a3fb 12c0 77f3 17bf 4450 33c0 24f6 dc3f
00000240: 01dd fa3e 01f1 ebbf 89a2 f23e 465a b63e
00000250: 775d 19be c6b8 c23e ceb2 713d 32c0 cebe
00000260: ac85 a1be c93d b03f 799d 04c0 bde9 a3bd
00000270: b9b4 7cbf b55e f53d 0533 49bf d135 87bf
00000280: d041 c1bf 48ec 6ebc e982 e0bf cc04 4840
00000290: 3845 983e c75e d13f 7c9d 3cc0 f6a0 2e3f
000002a0: 9ee0 21c0 e351 31be b015 f2bf e513 2dbd
000002b0: 85f2 41be a214 49bf 82ee 9f3f 9e47 b8be
000002c0: ca86 2d3f bcee a5bf 3a20 d7bf aee7 40bf
000002d0: 4a5a 0d3f 209b 12bf a39b aebf 1388 0d40
000002e0: e4e3 9e3d e466 3a3f 4d88 cbbe edf7 a9bf
000002f0: 34ce 80c0 8397 0140 136d 0440 050e dabf
00000300: 98ce 14bf 0b0e c6be 6c88 0940 30ff 0c40
00000310: 72c4 bbbf f454 a1bf 03f1 823e a2de 143f
00000320: fa19 c7bf a2cc 5c3f 15c6 bebf 02cd c23f
00000330: cd6b 203f 3d93 9e3d 4536 30bf ac94 15bf
00000340: 979a 28c0 e2d9 c73f e6bf 23bf c122 933e
00000350: 3c44 d93e 43de 793f 26b4 2c40 4b17 89bf
00000360: 4f37 cb3e 3595 cd3f a507 6abf 3ecc 36bf
00000370: a1c0 a13d f195 bb3f 92f9 41c0 57e4 7bbf
00000380: 1857 82bf 53ad 993e 5f9c 5dbf db0c 7b3f
00000390: 27d5 363e 486a 63bf 312c 90be f02f 34bf
000003a0: 770a 8c3f 4aa8 f03f 6a21 ac3f 8df6 293f
000003b0: e60a bcbe 3d0a 2ac0 e9f2 d43f 4f4c 993f
000003c0: 71bf 75bf 6dde edbf 5a7c 0040 d470 fe3f
000003d0: 3967 d5bf 8bb4 ce3f b7a6 92bf d620 2240
000003e0: 3ef0 2140 792b 923f 60f1 abbf aab2 c23f
000003f0: e3e0 79bf ca2c 3bbf 893f bd3f 25f1 50be
0.82321566 -0.8178553 1.2464592 1.3776773 -1.8039404 -2.0258143 -0.85470927 2.1672869
1.6842722 -1.5268431 1.2011521 0.9116034 -1.7308317 -1.0467536 3.696737 1.1417825
-1.0783693 2.0195258 0.17507033 -0.21499367 1.7972172 -0.7220605 0.20486829 0.666257
0.6100657 0.6179391 0.35880375 -0.029393671 0.3465811 0.31134084 0.47714266 1.0342757
-2.061643 -1.469106 0.55975777 2.467538 -2.2037768 -0.36469662 0.2754449 -0.029487249
0.5987746 -0.48996502 -0.8487271 0.11519895 0.3797343 -3.8421197 1.328534 1.0136374
2.0234144 -0.28388518 1.5373678 0.61578715 -0.38667643 0.41295218 -2.1562123 -0.06956167
1.1078336 0.18573807 -1.1827091 0.29800698 2.2985423 -0.20084697 1.3124791 -0.31401163
0.11735166 0.056752592 -0.4767521 3.088235 2.111725 0.84634745 -1.0417869 -1.6547724
0.04157985 1.3163582 0.6714806 -1.9758344 1.271437 1.0582296 2.121225 -0.43270376
0.86930233 1.4429767 -1.136011 0.6979191 1.3698598 1.0710729 -3.0075674 0.08722821
1.8015108 0.917738 0.72664565 -0.5742379 -0.5741211 0.4964205 0.44003966 -0.24764244
-0.51988226 2.9267588 1.5925871 0.8071702 1.2959939 -0.33290762 1.0025184 1.3629656
-2.2028956 -0.9694663 -0.3505677 0.24027015 2.3373196 1.2138238 2.159933 -0.16855834
-0.34962484 -0.025184557 0.41651124 -0.72906274 1.4563547 -0.4487313 -0.30346498 -0.15287016
-1.5096865 -0.8713857 1.2084409 -0.693967 -1.6304779 -0.21467441 0.2197655 -0.048882212
-0.47571224 -1.6181817 -0.002448571 1.8529899 -0.7817305 -0.65641475 1.2166632 3.9628468
1.4524803 1.8343278 -0.8051045 1.4999857 -2.2966087 -0.5935587 -2.801774 1.7262616
0.48996738 -1.8432924 0.4738963 0.35615748 -0.1497706 0.38031596 0.059008412 -0.40381008
-0.31547296 1.3768855 -2.0721114 -0.080035664 -0.9871326 0.119809546 -0.78593475 -1.0563298
-1.5098209 -0.014582701 -1.7539951 3.1252928 0.2974031 1.6357049 -2.947112 0.68214357
-2.5293345 -0.17316394 -1.8912868 -0.0422553 -0.1894017 -0.7854711 1.2494662 -0.3599214
0.67783797 -1.2963481 -1.680671 -0.75353515 0.55215895 -0.5726795 -1.3641247 2.2114303
0.077583104 0.7281325 -0.39752427 -1.3278786 -4.0251713 2.0248725 2.0691574 -1.7035528
-0.5812774 -0.3868259 2.1489515 2.2030754 -1.4669325 -1.2604051 0.25574502 0.5815221
-1.5554802 0.86249745 -1.49042 1.5218813 0.6266449 0.07742927 -0.6883281 -0.5842998
-2.6344354 1.5613368 -0.6396469 0.28737453 0.4243487 0.9760477 2.6984954 -1.0710233
0.39690635 1.6061159 -0.91417915 -0.714054 0.07898069 1.4655133 -3.0308576 -0.98395294
-1.0182829 0.30015048 -0.8656673 0.9806649 0.17854749 -0.8883405 -0.28158715 -0.70385647
1.0940694 1.8801358 1.3447697 0.6639183 -0.36727065 -2.656875 1.663663 1.1976413
-0.9599524 -1.8583504 2.0075898 1.9878182 -1.6672126 1.6148847 -1.1457127 2.5332541
2.5302882 1.1419517 -1.3433037 1.5210774 -0.97608775 -0.7311522 1.4785014 -0.2040449

gates.linear2.in_bias f4 [20, 16]
00000000: 008f f3bd 403a 85bd 5983 9abc a985 c13e
00000010: f3b0 d83d 308c cf3d 787b 353c 51a7 893e
00000020: 16da 6c3f e24f 9e3d bb1f a13e e983 5b3e
00000030: 349a 9e3d 6e67 a3bc 70d9 29be 6774 2a3f
00000040: 5a72 a73c 274d 08bd bef1 973c 868e 9bbc
00000050: 18c0 13bd e66e a53c ce1a 973c bbfa 863c
00000060: 454d 89bc 3ae9 86bc a1e6 92bc 97cf 98bc
00000070: 0f51 93bc a480 963c 25e6 8dbc 6b2a 13bc
00000080: 6e03 2cbe 0d38 c8bd dd8a 0d3e d323 ea3d
00000090: c6fd 5bbe e684 e13c 66a3 163e 84c4 86be
000000a0: 17e4 a9bd a49a b6be a1b4 d1bd a7f9 1d3e
000000b0: e0b6 b7bd 2b4b 41be 27ab bbbd 84a3 903e
000000c0: 1c7a 72bd 2f30 5ebd d3e5 9ebd 9824 8cbd
000000d0: 1d12 87bd 6815 25be 1359 80bd e6e1 bb3d
000000e0: 9783 cdbd d5d6 8f3e 61bb 82bd 6df6 94bd
000000f0: 5733 6bbd 7419 84bd a416 633d efeb a23d
00000100: 2128 b4bd 6513 773d 2d98 d0bd 5fa2 ad3d
00000110: df98 813d 1db5 05bd 834e f0bd 4d0d 43be
00000120: 22d6 7c3d af6c 89bc f579 cc3a c545 a03e
00000130: 3f09 c4bc 0767 b2bc daf5 313d 1c11 3d3e
00000140: f876 d13c dd0c d03c 41be c73c 524c b8bc
00000150: e2e1 c93c e81a c0bc fabd c93c fb5e cc3c
00000160: fab6 c4bc 23d5 bbbc cc09 c6bc 369d c73c
00000170: 76e7 c8bc a09c cf3c 4b54 cb3c 7482 ccbc
00000180: 2a9e 4ebc b388 42bd 1ff7 a63c 5462 713c
00000190: 5692 9dbc 89d7 55bc b184 8ebc eaca 9a3c
000001a0: 3cf5 2d3c 627f 473c bca4 54bc 96af 73bc
000001b0: cd99 e23c 0a6e 933c 61ae dcbc 1721 5abc
000001c0: b7a2 743c 83a4 873c 0c1d a43c efe5 633c
000001d0: 4fee 57bd 3887 6cbc 391b 783c 8fe1 7bbc
000001e0: 3114 54bc bc92 5f3c 3066 bb3d bee7 63bc
000001f0: c8c7 4e3c df93 78bc 6b52 933c 89ba 883c
00000200: fcf7 b1bd 8c9c 243e 923f 003e 8337 163d
00000210: 1a03 79bd 67b0 bebd 9184 49bd ec3b 6fbc
00000220: 1aa6 bb3c a00c 203d 1935 a4bd eee7 273d
00000230: 5935 9bbd 99e2 b3bd e177 aebd 6b65 26bd
00000240: 4246 d1bc cec9 7d3c b309 d3bc 15fd c9bc
00000250: 2d71 b9bc 7530 c7bc 507a 3d3d 5f07 b13c
00000260: 34c6 b0bc d07c 083d 5732 69bc 4ab5 efbc
00000270: 89ed 993c 63a4 c5bc 738b 9dbc 858d 93bc
00000280: ac4f b13c 2cbf 013d 1fc8 06bd 2c20 4b3d
00000290: a4e9 c6bc e6f7 313d 6058 d0bd d021 313d
000002a0: f903 c13c ae13 3bbd e49e 0dbd 7b33 033d
000002b0: 0825 ee3c f4bc 17bd bb1b 3b3d a002 fe3c
000002c0: 5c5b 8d3e 6af1 bd3b 58ef 063d aad9 583c
000002d0: 0ee3 3d3e 4733 963c e113 5fbb c195 963e
000002e0: 7339 3fbd cd11 393e 559d ee3c b751 0e3c
000002f0: d1cd 973d c7fb c93d 7298 883e 6c69 433d
00000300: e490 e43c 12ff 313d ba6d e4bc 231c cc3c
00000310: 5eac 3c3d 25be c7bc b6a0 0bbe 124f 07bd
00000320: c8f0 513d fbb3 28bd b82e a4bc 9e3a 06bf
00000330: cc2c c2be 47d2 41bd 5fc2 81bc de38 a63d
00000340: a822 2bbd 342e 8b3d 8bf1 57bd 4e61 75bd
00000350: 7fc8 90bd e1aa 6bbd bfaf 73bd 71fe 663d
00000360: 1785 853d 25de fabe b83a 4bbd 4e9e 53bd
00000370: 780d cb3d 57fe 8f3d 3314 4f3d f8dd 753d
00000380: 7c5d 203b 9654 d23d 87a1 04bd 7b80 ed3e
00000390: 7747 82bd 0078 37bd b76a 9cbe bc5c 2cbd
000003a0: aaff 20be 1838 68be 110f ad3e a81d 063f
000003b0: ba59 63bd e3f7 f1bb d1bb c43e 2bb8 7d3e
000003c0: 4569 0fbd 1240 f53d 0e6f cbbd afa0 1abe
000003d0: 9014 b93d 085e e33e 4bb2 32bd 389c af3e
000003e0: 0c90 30be 7645 9e3e e83b 5f3d 4f7e 1b3f
000003f0: 280f 8cbd 279a 93bd decf a33e bba8 49bc
-0.118925095 -0.06505251 -0.01886146 0.37797287 0.105806254 0.101341605 0.0110768005 0.26885465
0.9252027 0.0773008 0.3146952 0.21437038 0.07744256 -0.01994678 -0.16586852 0.66583866
0.02044027 -0.033276703 0.018547889 -0.018988859 -0.036071867 0.020194482 0.018445399 0.01647698
-0.016760478 -0.016468633 -0.017932238 -0.018653674 -0.017982988 0.018371888 -0.017321656 -0.008982281
-0.16798183 -0.09776316 0.13822503 0.11432614 -0.21483526 0.027529191 0.14710769 -0.26321805
-0.08295458 -0.35664856 -0.1023953 0.15427266 -0.089704275 -0.1887633 -0.09163504 0.28249753
-0.059198484 -0.05424517 -0.07758679 -0.06842917 -0.06595252 -0.16121447 -0.062669896 0.09173946
-0.100348644 0.2809359 -0.06383396 -0.072735645 -0.05742201 -0.06450167 0.055441514 0.07955157
-0.087967165 0.06032123 -0.10185275 0.084782355 0.06327986 -0.032643426 -0.11733725 -0.19048043
0.06172765 -0.016775457 0.0015600311 0.3130323 -0.02393019 -0.021777643 0.043447353 0.18463558
0.025569424 0.025396759 0.024382712 -0.02249733 0.024643842 -0.02345033 0.02462672 0.024947634
-0.024013031 -0.02292878 -0.024174593 0.024366956 -0.024524432 0.02534324 0.024820467 -0.024964549
-0.012610951 -0.047493648 0.020381508 0.014732916 -0.019234817 -0.013051876 -0.017397257 0.018895585
0.01061755 0.0121763665 -0.012978729 -0.014873406 0.027661229 0.017996807 -0.02693862 -0.013313553
0.014931372 0.016557937 0.020033382 0.013909801 -0.052717503 -0.014436536 0.015143209 -0.015373602
-0.012944267 0.013645824 0.0915035 -0.013910232 0.012620874 -0.015171974 0.017983636 0.01669051
-0.086898774 0.16075343 0.1252425 0.036674034 -0.060793974 -0.0931099 -0.04919869 -0.014601689
0.022906352 0.03907454 -0.0801794 0.04099267 -0.07578535 -0.087834544 -0.08518959 -0.040624063
-0.025546197 0.0154900085 -0.02576146 -0.024656812 -0.022636974 -0.024315098 0.046259224 0.02160996
-0.021578886 0.033322155 -0.014233193 -0.02926125 0.018790023 -0.024126237 -0.019231534 -0.018011818
0.021644436 0.031676456 -0.032905694 0.04959123 -0.02428133 0.043449305 -0.10173106 0.043245137
0.023561465 -0.045673065 -0.034575358 0.032031517 0.029070392 -0.037045434 0.045680743 0.031007111
0.27608764 0.005796601 0.0329431 0.013235489 0.18543646 0.018334998 -0.0034038948 0.29411128
-0.046685647 0.18073197 0.029127756 0.0086864745 0.07412303 0.09862476 0.26678807 0.04770796
0.02790112 0.043456145 -0.027884353 0.02491576 0.04606282 -0.02438266 -0.13635525 -0.03303439
0.051255018 -0.041187268 -0.020041808 -0.5243319 -0.37924802 -0.047319677 -0.015839754 0.08116315
-0.041781098 0.06795922 -0.052720588 -0.05990725 -0.070694916 -0.05753601 -0.059493776 0.056394998
0.065195255 -0.48997608 -0.049616545 -0.051664643 0.09914678 0.07030933 0.050556373 0.06002614
0.0024469784 0.1027004 -0.032380607 0.46387085 -0.06361287 -0.044792175 -0.30550167 -0.042080626
-0.15722528 -0.22677648 0.33800557 0.52389 -0.05550549 -0.0073842867 0.38424543 0.24777286
-0.035012502 0.11975111 -0.099332914 -0.15100358 0.09037125 0.44407678 -0.043627065 0.34298873
-0.1724245 0.3091237 0.05450049 0.60739607 -0.06838828 -0.072071366 0.31994528 -0.012308295

gates.linear2.mlp_out f4 [20, 16]
00000000: 89d4 963e 156a 263f 89e4 5abd 0edc c2be
00000010: 7bf3 c33e 82f5 ef3e 9838 1b3f 7da3 a7be
00000020: 5a26 ebbe aa8e 0f3f 5c5f e0be 01af 1fbf
00000030: c450 233f 9b9c 6f3f ca58 8f3e a486 2bbf
00000040: aec9 5fbd 5ec2 17be 0f9a cbbd 47c8 183e
00000050: 75d5 54be 6704 56bd bb45 99bb fb04 40bf
00000060: 4b91 003f cda1 093e 09d7 1e3e 5828 493d
00000070: b460 2a3e 03f3 cfbc 1e37 d63d 9ad5 013e
00000080: a5b7 003e 6146 8e3e 8ef6 9fbe 09d3 18be
00000090: 409c 9f3e b48c 85bd 745a dbbe d4e6 073f
000000a0: 9cb5 2f3e 15cd 383f a5f7 2f3f 6ddb 80bf
000000b0: 50bf e13e 9608 b73e f0de a03e 5c17 35bd
000000c0: 33b5 7e3e c8cf de3d 5946 a63c 7935 c63e
000000d0: 90ac 243f 5392 423d c9b6 803e f4db 93be
000000e0: 8b63 cf3b 9d53 01bf c6d2 e03e 68f7 5e3e
000000f0: b473 403e 9430 833e 2fcb 24be 0b3b a8be
00000100: 18e5 313f bbd6 c0be 6a4f 4b3d 5c93 c83e
00000110: 7943 f03e eee8 553f f74f 58b7 f1bc cd3c
00000120: 8ee8 aebe fbd6 343e 10e1 81bb 30b2 8ebe
00000130: 06cf d3be 291e 0c3f 1640 4a3f e871 2ebf
00000140: e86e b1bd 1430 c7bd 3f1d 64be e760 a43c
00000150: 0d73 f1be b516 823d 7294 83be 157f 61be
00000160: 06b2 603e ea2a 043d d026 0c3f 0eac 86be
00000170: 7f5e a83e 275a ddbd 939b 8abe fcfc 013e
00000180: 1bba be3d 5412 813c 7244 28be fea2 95bc
00000190: 8e58 d63d 5551 893e 8708 8d3e ee65 15be
000001a0: b26b 17be 8ab7 9fbd d003 223e e215 913d
000001b0: a54b 6fbe df34 ebbd 001d 9c3d 5107 ed3d
000001c0: 6b10 19be 3aa6 02be 80e0 c0bd 5e37 8cbe
000001d0: 8f66 0f3f bdba 1f3e 1d70 debd 2244 1b3e
000001e0: 024f 663e 7fc8 4abe 3649 0fbf ffe7 8d3c
000001f0: 7ab0 c5bd 6095 6d3e e5ca 79be a533 82bd
00000200: 3c40 893e eecd abbe 57c3 39bf b93d d0bd
00000210: dc88 093d 8140 ac3e 3f7d 103e 1858 943e
00000220: 6ae7 a6bc 2230 f4be ac08 a43d 90b4 cdbd
00000230: 513a f03d 811a 403e 02ab ba3d 9f54 243e
00000240: f145 6a3d 0b76 abbd 4e1f 433e d615 6b3a
00000250: a08f a93e 4e70 33ba a6a3 b9be 8c78 72bd
00000260: 0d37 b33e bef8 b5be 717e 3e3d 9598 c03d
00000270: ac70 98be b125 363e 4a68 853e aa5f b23d
00000280: 8d16 10be fc03 25be 0629 903e e3ae 13be
00000290: c019 e53d 0c43 9cbe 0c08 ee3b fada 38be
000002a0: 5cac b5be 774f c83d 42de 323e a853 bdbe
000002b0: 06b3 6fbe 1f2b 423e 8243 15be 5948 b7be
000002c0: 5aba d3be be0c 083f acb5 bd3e a702 a5bc
000002d0: c378 19bf 88f2 17bd 28e2 86bd 54bf 1fbf
000002e0: f68e af3d 63ee 0ebf 4f89 28bf 8a5f e43e
000002f0: eb08 853e 0c57 2ebe f2d9 28bf 47f6 813e
00000300: 525d 07be 2bd7 3abf b668 9a3e 546a 8cbe
00000310: 62b9 f5be 200b 383e c70d 743f 57bc 103f
00000320: 5141 debe f948 933e f491 0e3d ff5c d53e
00000330: 4029 0c3f 7510 043f 1207 0abc 640d 01bf
00000340: 1531 9d3e 976f 05bf 215a 913e 849e c63e
00000350: 516a 1b3e 3b36 d23e 168b 0a3e 44bc 86be
00000360: d963 0ebf 6161 db3d ab61 f13e 21f4 9b3e
00000370: 658d a3bf 864b a9be ca3b 42be 3cbb 2cbe
00000380: fdee bebd ed59 aebd 4d43 3e3d 16d6 83be
00000390: 9a5a 963e c1f4 7f3e bb24 383f 048e c43e
000003a0: e20d c93e 7cac c43c 28c3 91be 4304 c7be
000003b0: 8bb3 0e3f 7cd1 b63e 5409 b6be 737e cbbe
000003c0: 388d 263e 07c1 fa3e 0a39 793d d99b 7c3e
000003d0: bd31 013f 2c6b eabe 85e8 0e3f afd8 a8be
000003e0: e278 843e dede 10bf 31dd 4b3f 36a3 02bf
000003f0: 4853 153f 6d88 da3e a993 24bf 8bfd 1bbe
0.29459026 0.6500562 -0.053440604 -0.38058513 0.38271698 0.46866995 0.6063323 -0.3274192
-0.45927697 0.56077063 -0.43822753 -0.6237641 0.63795114 0.93598336 0.27997428 -0.6700232
-0.054635696 -0.14820239 -0.09941494 0.1492015 -0.20784552 -0.052250292 -0.004677502 -0.750076
0.502217 0.13440628 0.15511717 0.04911074 0.16638452 -0.025384432 0.104597315 0.12679139
0.12570055 0.2778807 -0.31242794 -0.14924254 0.31173897 -0.065209776 -0.42842448 0.5308659
0.17159122 0.7218793 0.6873725 -1.0066963 0.44091272 0.35748738 0.31420088 -0.04421173
0.2487381 0.10879475 0.020297216 0.3871267 0.6432581 0.047502827 0.25139454 -0.28878748
0.006329005 -0.5051821 0.43910807 0.21774065 0.18794137 0.25623 -0.16093133 -0.32857546
0.69490194 -0.37663826 0.049636282 0.39174926 0.46926478 0.8355855 -1.28932215e-05 0.025114508
-0.341618 0.17660134 -0.003963597 -0.2787032 -0.41368884 0.5473352 0.7900404 -0.6814256
-0.08663732 -0.09725967 -0.22276781 0.020065738 -0.4715809 0.06351987 -0.25699192 -0.22021134
0.2194291 0.03226749 0.54746723 -0.26303142 0.32884595 -0.10808211 -0.2707182 0.12694162
0.093128406 0.01575581 -0.1643236 -0.018266197 0.10466109 0.26819864 0.27545568 -0.14589664
-0.14787176 -0.07798679 0.15821767 0.07084252 -0.233687 -0.11484694 0.07622719 0.11573661
-0.14947669 -0.12758723 -0.0941782 -0.27385992 0.56015867 0.15598579 -0.10861228 0.1516271
0.22491077 -0.19803046 -0.55971086 0.017322538 -0.09652801 0.23201513 -0.24393804 -0.06357507
0.2680682 -0.3355555 -0.7256369 -0.10168023 0.033577785 0.33642963 0.14110278 0.2897346
-0.020374019 -0.47692972 0.080094665 -0.10044205 0.11729873 0.1876011 0.091146484 0.16047905
0.057195608 -0.08372124 0.1905491 0.00089677924 0.3311739 -0.0006845043 -0.36257666 -0.059196994
0.35002938 -0.35541338 0.046507303 0.09404103 -0.29773462 0.17787816 0.2605613 0.08709653
-0.14071102 -0.16114801 0.28156298 -0.14422183 0.11186552 -0.30519903 0.007264143 -0.18052283
-0.35483062 0.09780782 0.17467597 -0.36977887 -0.23408136 0.18961762 -0.14576533 -0.35797384
-0.41353112 0.53144443 0.37052667 -0.020142866 -0.5994989 -0.03709653 -0.06586105 -0.6240132
0.085721895 -0.558325 -0.65834516 0.4460414 0.25983366 -0.17025393 -0.6595756 0.25383207
-0.13219193 -0.7298457 0.30158013 -0.27424872 -0.47992998 0.17972994 0.9533352 0.56537384
-0.43409207 0.2876661 0.03480716 0.41672513 0.5475044 0.5158761 -0.008424537 -0.5041106
0.3070151 -0.521234 0.28389075 0.38792813 0.15177275 0.41057 0.1352962 -0.2631551
-0.55621105 0.10711933 0.47144827 0.30459693 -1.2777525 -0.33065432 -0.1896812 -0.16868299
-0.09322927 -0.08513246 0.0464509 -0.25749272 0.29365999 0.2499571 0.71931046 0.383896
0.39268404 0.024008028 -0.28469205 -0.3887044 0.5574271 0.357067 -0.35553992 -0.3974491
0.16264808 0.48975393 0.060845412 0.24668826 0.5046652 -0.4578489 0.55823547 -0.32977816
0.25873476 -0.5659007 0.79634386 -0.5103029 0.583302 0.4268221 -0.6428781 -0.15233438

gates.linear2.out_bias f4 [20]
00000000: f625 56bd dd5f 9abc 70c7 ccbd a860 90bd
00000010: 36b4 adbd a722 c8bc ddc6 63bc 240b 86bc
00000020: 150f 9fbd 3baa bfbc 8e18 0fbd 029e 77bd
00000030: 8724 ebbc 7d26 60bd 53cd 7abd 8622 0fbd
00000040: fcd2 b3bd a235 b2bd 2cd5 8cbd 879a 1b3c
-0.052282296 -0.01884454 -0.09998977 -0.07049686 -0.08481638 -0.024430586 -0.013902393 -0.016362734
-0.077665485 -0.023396602 -0.034935527 -0.060453422 -0.028703941 -0.054724205 -0.06123097 -0.034945033
-0.087804765 -0.08701636 -0.06876597 0.009497291

gates.hidden_layers-0.mlp_in f4 [20, 16]
00000000: c8f2 87bf 6602 89bf 171d 6dc0 7353 d63d
00000010: a41b 323f bedc f13e e948 92bf 5131 9a3f
00000020: 3c3a b63f e010 6f3f b1b6 67bf ab35 2440
00000030: 6292 3abc d335 6140 91ec 7d3f ec7e 65bf
00000040: 7c3e 013e 05c2 81bf 6d7e 933e 86d9 69bf
00000050: 60af 483f a4b1 8d3d 343a d6bf c29e 1840
00000060: 4da3 3040 e76c 0cbf 8ccd cf3f cc14 863f
00000070: 875f 4dbf 45f5 c13f 26de 443e abb5 88be
00000080: bcea 933e 6845 21bf c48b bebe bf93 893f
00000090: 2545 ab3f 2399 f1bf 1d3d a9bf fb54 0fbf
000000a0: 73bc 0240 a989 573f a584 8cbf 5694 4dbf
000000b0: 198a 52be f0f8 cebf eb57 23be eb22 4d40
000000c0: 38c3 0440 9f23 083e d7bb 0ebf ef2e 0ebf
000000d0: e27f ca3d abbe cabd 17e7 36bf 9ec6 49c0
000000e0: dfba e1bf 03b0 93bf 96cf c1bf b007 e13e
000000f0: 7ad3 4cbe f7a5 16c0 e9b7 dbbf d1d1 ad3e
00000100: 83df 20bc a725 9c3f 343b fa3e d88b 8bbd
00000110: c0e2 6a3e 8392 c53f 4d23 c8be 7ffb f33d
00000120: 69e3 fe3f 9e81 6abf 93a6 123f a0bb 69c0
00000130: 546b 1ebf 2d13 4fc0 1263 b6be 51e6 15c0
00000140: 2d8d 3d40 c1c5 7cbf 1c5e 2dbf 4c70 183f
00000150: 9024 a83f 4acb f3bd 23e4 e73f d6d7 a13f
00000160: 1736 bb3d 54f0 b53f c447 abbf 3058 97be
00000170: 91de d83e 1e83 11c0 eb74 8b3e e26d 223e
00000180: 93de 0dbe 3208 08bf eeca 23c0 5b1f 4ebf
00000190: cd9d d03f 88d0 3e40 4e68 25bf cfe7 1cc0
000001a0: 85a0 7e3f 3e3b b83f 68ae 383f bbaa 8fbe
000001b0: 0648 1440 57ac 0840 4ef5 0bc0 f36d 3fc0
000001c0: 0996 7740 a20e ef3d 0ea0 0dc0 87c0 963f
000001d0: 1ad1 453f f7e4 bd3f c6dd 4d40 ce75 3240
000001e0: f4d6 ffbf d8c7 a9bf ef61 93be 8ec0 0fbf
000001f0: 994e f73f d453 a5be 0b87 26be e06a c4be
00000200: 552f 0abf c901 02bf 0eaf 48bf f557 e93e
00000210: c242 edbf f931 e73f bdfa cabf d3d3 d4be
00000220: a755 913f fd88 06c0 2906 84bf 36e2 f23f
00000230: 6a46 37bf 769f d73f df93 3440 d096 b83f
00000240: 37f1 ac3f 56e6 ddbd aef2 4cbf 0a02 fe3e
00000250: a76e f53f 9756 3bbf 46ef 0c40 95fe fcbe
00000260: ccf3 3b40 3de6 d23e ebf4 bdbe 4553 0fbe
00000270: 23ec b0be 7128 ae3d c97b f83e 60c9 523f
00000280: 3263 92bf fdae cabc f80d 02c0 c9ab 08c0
00000290: a413 0940 dc3a a43f 4b99 90bf a520 d13f
000002a0: ca8e e0be 7187 ac3f b7e5 473f 2247 563f
000002b0: 07b4 243f 18bf d4bf 6ace 973e b6fd 1d3f
000002c0: 7654 c6bf 6f9b ca3e 96f5 34c0 a539 7240
000002d0: 2d4a bfbf fea3 b33f f8fe 01c0 afb0 bebf
000002e0: 5d1e 3140 7fe0 973f 20da 0b3f 1d68 4bc0
000002f0: ef95 f9be c0dc bfbf a37f eb3d 37df 3bc0
00000300: a30a c3be 5601 fcbe d2bb 873f 551d 473e
00000310: 6e2f 3d40 be72 10c0 23de 433e 8262 83bf
00000320: 68eb e2bf 50b2 c8bf fe48 d53c c22d 013f
00000330: de8a 5440 4af8 0bbe f2e6 9340 c3a2 5840
00000340: 3f1d a43f 9404 9cbf 83ac 25bf 7d3a cf3f
00000350: 621b 1040 416d 0dbf 95b2 23bf b96c 683f
00000360: 7ee3 14bf 1ed0 e03f 312c f93f 2790 4c40
00000370: 7941 23c0 fb7a 463f 5fa0 b73f 1322 cbbf
00000380: cf28 3040 f79a e03e a9ec 513f 549f 23c0
00000390: f945 dabe c062 5e3f da12 43bf eb47 c9be
000003a0: 80a2 0d40 73b6 c33f 1b58 8b3e 9a90 f03f
000003b0: ae86 a2bf f82c 543f a242 8b3d c882 763f
000003c0: ce41 983e 866a 41c0 578f 88bd d951 c33f
000003d0: 5972 43bf 12d2 a63f 9125 0340 0fb5 3c3d
000003e0: 5357 23c0 60da d53f ffcc b1bf 6427 f23e
000003f0: 8b58 d5be b8f7 c83d 09cc 8f3e 57e4 f73f
-1.0620966 -1.0703857 -3.7049005 0.104651354 0.69573426 0.47238725 -1.14285 1.20463
1.4236522 0.93385124 -0.9051314 2.5657756 -0.011387439 3.5189102 0.99189097 -0.8964679
0.12621492 -1.0137335 0.28807393 -0.9134754 0.783926 0.06918648 -1.6736512 2.3846898
2.759967 -0.5485367 1.6234603 1.0475097 -0.8022389 1.5152975 0.19225368 -0.26701102
0.28890026 -0.6299653 -0.37216008 1.0748214 1.3380476 -1.8874859 -1.3221775 -0.55989045
2.042752 0.8419443 -1.097798 -0.8030447 -0.20560493 -1.616972 -0.15951507 3.2052562
2.0744152 0.13294838 -0.5575537 -0.55540365 0.09887673 -0.09899648 -0.71446365 -3.1527476
-1.7635154 -1.153809 -1.5141475 0.43951178 -0.20002547 -2.3538797 -1.71655 0.3394914
-0.009818914 1.219899 0.48873293 -0.068137825 0.22938061 1.5435337 -0.39089432 0.119132034
1.991315 -0.9160403 0.5728542 -3.6520767 -0.6188252 -3.2355454 -0.3562246 -2.3421824
2.9617417 -0.9873925 -0.67721725 0.5954635 1.3136158 -0.11904009 1.8116497 1.2643993
0.09141176 1.4213967 -1.3381276 -0.2955947 0.42357305 -2.2736278 0.2723764 0.1586223
-0.13854437 -0.53137505 -2.5592608 -0.80516595 1.6298157 2.9814777 -0.6461228 -2.4516485
0.99463683 1.4393079 0.7214112 -0.28059945 2.316896 2.1355188 -2.1868472 -2.9910858
3.8685324 0.11672713 -2.212894 1.1777505 0.7727219 1.48355 3.216661 2.7884402
-1.9987473 -1.3264112 -0.28785655 -0.5615319 1.9320861 -0.32290518 -0.16262452 -0.3836279
-0.5397847 -0.50783974 -0.7839211 0.45574918 -1.8535998 1.8062125 -1.5857769 -0.4156786
1.1354264 -2.102111 -1.031438 1.8975284 -0.7159182 1.6845539 2.8215253 1.4421024
1.3511113 -0.10834949 -0.800578 0.4961093 1.9174393 -0.73179 2.202104 -0.4941298
2.9367552 0.41191283 -0.3710092 -0.13996609 -0.34555158 0.08503807 0.4853194 0.82338524
-1.1436522 -0.024741644 -2.0321026 -2.135485 2.1418238 1.2830462 -1.1296781 1.6338087
-0.4385894 1.3478833 0.7808489 0.8370229 0.643372 -1.6620817 0.2964967 0.6171526
-1.5494525 0.3957171 -2.8274894 3.7847683 -1.4944512 1.4034421 -2.031187 -1.489767
2.7674782 1.1865386 0.5462971 -3.1782296 -0.48747203 -1.4989243 0.11498954 -2.935499
-0.38094053 -0.4921977 1.0604193 0.19444783 2.9560199 -2.2570033 0.19127707 -1.0264437
-1.772809 -1.5679417 0.026035782 0.50460446 3.3209758 -0.13668934 4.6219416 3.3849342
1.2821425 -1.2188897 -0.64716357 1.6189724 2.2516713 -0.55244833 -0.6394437 0.907909
-0.58159626 1.7563512 1.9466611 3.1962984 -2.5508711 0.77531403 1.4345816 -1.5869774
2.7524908 0.4386823 0.8200174 -2.5565996 -0.4263151 0.8686943 -0.7620064 -0.39312682
2.2130432 1.5290054 0.27215657 1.8794129 -1.2697351 0.82881117 0.067998186 0.96293306
0.29737705 -3.0221267 -0.06667965 1.5259353 -0.76346356 1.3032858 2.0491679 0.04607111
-2.5522048 1.6707268 -1.3890685 0.47295678 -0.41669115 0.098128736 0.28085354 1.9366559
